Assets/99.Others/ONNX/Badminton.onnx (onnx, 180747 bytes, 9 tensors)

action_model._discrete_distribution.branches.0.bias f4 [3]
00000000: 5990 9e3a e4ab eab9 fff7 9f39
0.0012097462 -0.00044760027 0.00030511615

action_model._discrete_distribution.branches.0.weight f4 [3, 256]
00000000: fc48 413b 3bef 413c d5d9 733c cd4b fb3b
00000010: 2c38 87bc 0ca8 863b 7593 ea3c 5463 28bd
00000020: 17c5 6dbd 601f 1d3d 1938 5e3d e70c b4bc
00000030: 21c5 0b3d 9572 0ebd 0c44 86ba d7e3 44bc
00000040: 0a54 32bc 3fec 863d 9cb0 74bc bce5 6ebc
00000050: eaf9 f93b 650a 6dbd df88 b03c 67e0 efbc
00000060: 7e9c 2dbd 6b8c 28bd 9079 283d 81f5 93bc
00000070: 4c93 1bbd f346 383b 5786 993d eb7a 88bd
00000080: 4086 fe3b 0806 443c 9579 6c3d b994 b5bc
00000090: ae2b 4bbd cdc5 803c 8211 32bd 7d5c 583d
000000a0: 5217 4bbb 3306 0ebc 8b9d 9e3c 89af 86bd
000000b0: 9135 07bd 26ad b93c ceb0 2bbd 8c50 52bd
000000c0: 545a 2cbd 9016 923d 0343 6a3d cfdc 4c3d
000000d0: 59b5 9a3d d3fd 523c 8e73 3f3b 6ab4 f93c
000000e0: bdcd 6c3d 3f78 3b3e d8d1 0dbb 354b cebb
000000f0: 9cef 9f3b 2a76 9c3d 804a a93b a8bc 973b
00000100: 1a5d 3f3e 7f98 04bd d002 703d 5170 acb9
00000110: e6d1 8bbb 1809 7abb d6a8 99bd d837 b83d
00000120: 9605 e2bc da1e 3cbd 503f 273d f472 8d3a
00000130: dfe0 4e3e 3b41 d3bc cdca 2f3c a1d9 4e3b
00000140: f048 9a3d a97e 5e3b bfa4 7ebd edce 083d
00000150: 645a 213d 3287 05bd ad7b 323d e86f 69bd
00000160: 69ef 1f3e 526f 7739 078b 243d 7c57 80bd
00000170: 75e9 4dbb 7199 ecbb de9b c83c c472 1b3b
00000180: 0d89 163d 4c98 5fbd 34e7 1d3d 03c3 1e3b
00000190: 8aa3 383d 7644 11bc c0ae 9a3d 4bba 08bd
000001a0: 9292 94bc e1e6 34bc cff3 003d ad2d 853c
000001b0: 1bbb 3338 f878 813d 89a2 423d a2a6 75bb
000001c0: af9e aeba 148b 923b a093 1c3d 0c97 69bd
000001d0: 924d 893d 535f e33c 1eff 4f3d 609b ac3c
000001e0: 5c56 59bd fdd5 f63b bf1b cb3b 138a 373c
000001f0: 4fd3 a53d fb5b 9f3c d09a d0bb 20f1 103d
00000200: ee82 273d 20e6 763d a47f 41bd a283 21bc
00000210: f13b 873d c68e 8b3d 8515 0e3d 962a 56bc
00000220: 4d12 a2bc 0e2b 75bd 8171 e1bb 184f dbbc
00000230: d890 083d da56 623b 7dd9 203d 1187 343e
00000240: 1f3c 3f3b 06a4 77bb e6f6 043d 4e82 3b3d
00000250: 8788 423d 90fb edbb 19c2 9fbd 1c02 bb3a
00000260: 0df7 513d dcb4 5d3d 2261 59bd 536b 2abb
00000270: f83b 0fbc 2f52 23bd 4487 10bb 48f7 01bd
00000280: cc55 10bd 0e07 6e3b 8fec ec3c b20f 4b3c
00000290: 3977 153e 8bb5 ac3d 7ea1 b13b 4919 b03d
000002a0: 5699 173c 10a4 19bd fab0 a1bc 4617 de3c
000002b0: c3bc 9b3d ecf7 98bc 11a8 7f3d 570e 313e
000002c0: 0d83 26bc 214f 8b3d eb95 fc3c 5721 aebc
000002d0: 709a c63d d677 afbb 62e5 97bc d324 013c
000002e0: b436 94bc 1e99 7a3d 233a 2f3c a17f 963c
000002f0: b6f7 863c 3c5a 60bc 2c63 e0bc 9539 00bc
00000300: 9e4e a93c 58c9 ff39 9e9b 6dbb 9997 8b3d
00000310: bf76 0abc fc05 b8bc 1b06 23bd 6b18 10bb
00000320: 7bf3 523e e406 293e 4165 a1bc 6120 4dbd
00000330: dc18 6c3c c094 05bb d6fd 46bd 6b6b bfbb
00000340: 174d 12bc 5417 783d 9dbb 5d3d 87e8 b33c
00000350: f806 a23d 67d2 4d3d 0653 5b3d 75d7 ef3c
00000360: 3a3a 2b3c f47c 9b3c 3fe0 f8bc c89d f6bc
00000370: 1373 953d a28a 17bc 5a5b 5dbd c094 a63c
00000380: 675b 7b3d ceb5 97bd b912 cb3b fac4 253b
00000390: cbfb dbbc 6052 463d 85b0 a13d 9c87 903d
000003a0: d7f1 91bb 8f8a aa3d dd2d 873b c01b 60bb
000003b0: 6261 98bc 0e84 073d 01cd 4d3b 98ee 5cbc
000003c0: f6ef da39 b40e 4c3c 25e5 bd3c d994 763d
000003d0: f294 08bd 6f55 1e3e 8227 323d 53e8 88bb
000003e0: 7893 98bc e3b0 0dbc 6c65 1dbc d416 e5bc
000003f0: a3a2 a93c cbef fbbc 4c87 5c3d 6146 973c
0.0029492965 0.011836822 0.014883478 0.0076689483 -0.016506277 0.004109388 0.028634766 -0.04111035
-0.058049288 0.03836 0.054252718 -0.021978809 0.034123544 -0.034777243 -0.0010243668 -0.012017212
-0.010884294 0.06588029 -0.014934685 -0.01458114 0.007628669 -0.05787124 0.02154964 -0.029281808
-0.04238557 -0.041149538 0.041131556 -0.018061401 -0.03798227 0.002811846 0.074963264 -0.0666407
0.0077674687 0.011964329 0.057733137 -0.022165643 -0.049602203 0.015719319 -0.043473728 0.05282258
-0.0030989242 -0.00866847 0.019362232 -0.065764494 -0.03301007 0.022665571 -0.04191666 -0.051346347
-0.04207833 0.0713321 0.057192814 0.050015267 0.075541206 0.012877899 0.0029213163 0.030481536
0.057813395 0.18307589 -0.002163997 -0.0062955865 0.0048808586 0.076397255 0.005166352 0.004630644
0.18687859 -0.032371994 0.058596432 -0.0003289008 -0.004266965 -0.0038152393 -0.07502906 0.08995026
-0.027590554 -0.04592786 0.040831864 0.0010791705 0.20202969 -0.02578794 0.010729504 0.0031562822
0.07533443 0.0033950007 -0.062168833 0.033400465 0.039392844 -0.032599635 0.043574978 -0.056991488
0.15618671 0.00023597226 0.04017165 -0.06266686 -0.0031419669 -0.00722044 0.024488386 0.0023719529
0.036751796 -0.0545886 0.03855057 0.0024225123 0.045077838 -0.00886642 0.07552862 -0.033380788
-0.018136296 -0.011041374 0.031482514 0.016257131 4.285118e-05 0.06321901 0.047518287 -0.0037483354
-0.0013322438 0.004472146 0.038226724 -0.057028815 0.067042485 0.027755415 0.050780408 0.021070182
-0.053060874 0.0075328336 0.006198376 0.011202353 0.080969445 0.01945304 -0.0063661113 0.035386205
0.04089635 0.060278058 -0.04724087 -0.009858044 0.0660323 0.06814341 0.03468849 -0.013071677
-0.019784117 -0.059855513 -0.006879986 -0.026771113 0.03334126 0.003453663 0.039269913 0.17629649
0.0029180122 -0.0037786975 0.032462023 0.045778565 0.047493484 -0.0072626546 -0.07800693 0.0014267596
0.051260997 0.05412756 -0.05307115 -0.0026003912 -0.008742325 -0.0398733 -0.002205328 -0.031729966
-0.035238072 0.0036320123 0.028921394 0.012393879 0.14596261 0.08433064 0.0054208627 0.08598573
0.009252867 -0.037509978 -0.01973771 0.027110707 0.07604363 -0.018672906 0.06241614 0.17290626
-0.010163081 0.06802202 0.030833205 -0.021256132 0.09697425 -0.0053548617 -0.018541995 0.007882315
-0.01809249 0.06118118 0.010695013 0.018371405 0.01647554 -0.013693389 -0.027391039 -0.007826229
0.02066737 0.00048787403 -0.0036256085 0.06816024 -0.008451163 -0.022463791 -0.039800745 -0.002198721
0.20600693 0.16506535 -0.019701602 -0.050079707 0.014410224 -0.0020382851 -0.04858192 -0.0058416626
-0.008929512 0.060569122 0.054134 0.021961464 0.079114854 0.050249483 0.053545974 0.029277543
0.010450894 0.01898048 -0.030380366 -0.030104533 0.07297339 -0.009249361 -0.054042198 0.020334601
0.061366465 -0.07407723 0.0061973003 0.002529441 -0.026853463 0.048418403 0.078949966 0.070571154
-0.0044538784 0.08327209 0.0041253404 -0.0034196228 -0.018601123 0.03308492 0.003140271 -0.01348462
0.00041758985 0.012454677 0.023180554 0.060200546 -0.03334517 0.15462278 0.04349471 -0.004178086
-0.018625006 -0.00864813 -0.0096067 -0.027964987 0.020707434 -0.03075399 0.053839967 0.018466176

action_model._discrete_distribution.branches.1.bias f4 [2]
00000000: de14 153b 6913 15bb
0.0022748034 -0.0022747165

action_model._discrete_distribution.branches.1.weight f4 [2, 256]
00000000: c919 413b 923b 373b 7ef4 b2bc c22f 893d
00000010: f7c9 88bb bde2 b5bd 820e 19bc 07bd a63d
00000020: 9b50 183c d3a5 873d 6fc4 313d fb04 7fbd
00000030: 6467 1e3d 2c05 f7bb 7f21 ac3b c080 82bd
00000040: fb65 993c d1f9 653d e218 a13c 5b5c e63d
00000050: 4b42 973c 087b 35bc 4fda 193d d2eb 623d
00000060: 5db1 963a e337 93bc abc9 c53d 41ae a33d
00000070: 432c bebd 7b01 9ebc b4c7 133b 2e15 0e3d
00000080: 666f b53c a16e 2dbd b2dd 5c3c b5f9 5d3c
00000090: 2c56 833b b385 3aba 35c2 52bd 5d3e be3d
000000a0: 6715 a83d 9db0 0f3b a576 d83d 5924 483d
000000b0: 24b0 00bd a5d8 4c3a 854b 583d e46b 03bd
000000c0: 25ba 8a3d 04c8 493d d27d f1bc a5e6 d83b
000000d0: 5d26 943d 370c 123e 2fa2 393c e118 113d
000000e0: c7d2 b03c 9466 103e 4b2b e73b f944 7cbd
000000f0: 2e47 083e 4bce 8b3d 49ac 8f3d a357 143d
00000100: c879 773d dbaa 32bd f6eb 03bd 814f 223d
00000110: 949f 943d 151c bcbd 8925 023d fc84 a33d
00000120: ab12 5dbd 8720 38b9 4eb5 af3c 753d 5f3d
00000130: 9823 d43d 04b4 c1b9 1f5c 9c3d aaf1 ac3d
00000140: c478 f53d 8a0e 1c3c 88bf 20bc 79b5 503d
00000150: 4230 4abd d0b6 013d a20f e9bc aad3 643d
00000160: b17e 0d3e ea9f a3bc 7995 8a3d 8d42 f2bb
00000170: 08d1 683b 00f3 bcbd d25b 8c3c d3cb 753d
00000180: e824 103d 1926 743b c47b 443d 6238 cb3d
00000190: 6101 14bd 7b4f dd3c 25eb 533c cfa8 e4bd
000001a0: cd96 8e3d 22b4 a63d d7c5 d53c 372d 0c3d
000001b0: 6e20 8e3d d8c9 aa3d 1269 153c 755b b23d
000001c0: e117 34bc 81b1 91bd 6911 bb3d 4831 8cbc
000001d0: 6a19 8d3d 1bf2 773d 4bf9 703d f5db b83d
000001e0: 40d7 4f3d 8e69 23bc 7716 a839 8358 96bd
000001f0: 46b2 843d 5132 afbd 5822 b4bb d871 a6bc
00000200: ea76 3abd 13fb 503d c28f 47bc f489 8c3d
00000210: 5046 a43d 739c 993c 7e2f debb 16b7 92bb
00000220: ae6d ee3c 11c5 8b3d 032d 16be cb30 45bb
00000230: 9d12 c7bc 1d38 a43c 7a0a 17bd 6186 a83c
00000240: 7497 693d 0bc3 cabb 837e 3d3b 7416 153d
00000250: c71a 423d 7118 533c 1ddd 1b3c 98a3 2dbc
00000260: 3347 e6bc 6120 aa3d 4e12 933c 4faf 393d
00000270: 576d 6dbc f656 5abd 876a 7cbd a6c2 423d
00000280: 5efb d8bb 0442 09bd 2382 2ebd 259d 40bd
00000290: 0b58 f43d 7e4a 933d 2a95 9e3d e574 083d
000002a0: d8a1 4e3d 0445 823d dacf 9dbc bda8 e1ba
000002b0: 852d 8e3b e5b1 8d3d f0b6 b83d 0096 ec3d
000002c0: 590a 4b3d 8271 d93d d5c1 0abd 36e2 d6bd
000002d0: ec5a d03c 6bbe 8e3c 24c7 2b3c 43d7 2c3d
000002e0: edd5 b43d fb10 713d 1fb9 b7bd 31c6 cf3c
000002f0: cbd7 033e 7414 df3d 91de dcbc 2860 103c
00000300: 67bd a63d afc3 50bd 4acc d4bd 1a92 5b3d
00000310: 54af 28bd 62af 803d 3add 243d 4327 a3bd
00000320: cdbd b73d 38eb 9e3d 333b 353d 3158 b6bc
00000330: 370b 8c3d 03fd a63d 3ed4 8fbc 358b 7e3d
00000340: 30ba 813d 939a bfbd 2d5c c33d 60d6 09bd
00000350: 1f92 9e3d 264f 51bd cac7 af3d c616 b1bb
00000360: 2f99 643d 2785 953d c0fd a9bd 2f71 2abd
00000370: 532a e8b8 d66c 223d c6b2 783b 8d5d 69bc
00000380: 5354 b13d d849 23bd 12ce 863d 94c1 9dbc
00000390: b98d 2f3d 1e33 96bd 5c91 d83c efeb 1f3b
000003a0: 0482 7a3d 83b5 d23c b512 85bd 2c9c 89bc
000003b0: 0948 fa3b c645 ce39 b6ed 0ebd ba21 ae3c
000003c0: c7c3 613d 3d95 3b3d eacf a53d 29ba 363d
000003d0: 88ca 813d 489e b03d 226f ad3d cb8d bfbc
000003e0: a813 31bd f342 b83d ab0e 3e3d 377b 2c3d
000003f0: 78d8 00be ce28 6cbd f102 df3b d23e df3d
0.0029464832 0.002795909 -0.021845099 0.06698562 -0.0041744667 -0.088811375 -0.009341838 0.08141523
0.009296562 0.06623425 0.043400224 -0.06226061 0.03867282 -0.0075384583 0.0052530165 -0.06372213
0.018725386 0.056146447 0.019665185 0.11248084 0.018464228 -0.011076696 0.03756171 0.055400677
0.001149695 -0.017970985 0.09657606 0.07992221 -0.09285786 -0.019287815 0.0022549452 0.034688167
0.022147845 -0.042341832 0.013480591 0.013548304 0.004008075 -0.00071152597 -0.05145474 0.092892386
0.08207207 0.0021925338 0.10569505 0.04886279 -0.03141798 0.0007814265 0.052806396 -0.032085314
0.067737855 0.049263015 -0.029478941 0.006619292 0.0723388 0.14262472 0.0113301715 0.035424117
0.021584881 0.1410163 0.0070547215 -0.061589215 0.13308403 0.06826457 0.07015283 0.03621639
0.060418874 -0.04361997 -0.03220745 0.039626602 0.072569996 -0.09185044 0.031774078 0.07984349
-0.05397288 -0.00017559725 0.021448757 0.05450197 0.103583515 -0.0003694595 0.07634758 0.08444531
0.11985925 0.009524951 -0.00981129 0.050954316 -0.04936243 0.031668484 -0.028449837 0.05586592
0.1381786 -0.019973714 0.06766791 -0.0073931874 0.0035524983 -0.09226036 0.017133627 0.060008835
0.035191447 0.0037254153 0.047969595 0.099228635 -0.036134128 0.027015438 0.012934481 -0.1116501
0.06962357 0.08139826 0.026095314 0.034222808 0.06939779 0.0833928 0.009119289 0.0870885
-0.010992021 -0.07113934 0.0913418 -0.017113343 0.06889613 0.060533624 0.058831494 0.090263285
0.050742388 -0.009973897 0.00032060195 -0.07341101 0.064793155 -0.08554519 -0.005497258 -0.020317957
-0.04552356 0.051020693 -0.012180271 0.0686225 0.080212235 0.018751359 -0.006780564 -0.004477392
0.029105034 0.06824697 -0.14665608 -0.0030088897 -0.024300868 0.020046288 -0.036875226 0.02057189
0.057029203 -0.0061878017 0.0028914518 0.036398366 0.047388818 0.012884245 0.009513167 -0.010598086
-0.028110122 0.08306957 0.017953064 0.045333203 -0.014491401 -0.05330559 -0.06162503 0.047548912
-0.006621762 -0.033510223 -0.042604577 -0.047024865 0.11930855 0.07191943 0.077432945 0.033314604
0.050447315 0.0636082 -0.01926415 -0.0017216426 0.0043389224 0.06918696 0.090192676 0.11552048
0.049570415 0.10617353 -0.03387626 -0.10492365 0.02543398 0.017424783 0.010484491 0.042197477
0.088298656 0.058854084 -0.08970856 0.02536306 0.12875287 0.10892573 -0.026961597 0.008811988
0.081415944 -0.05096787 -0.103905275 0.05360613 -0.04118283 0.062834516 0.04025004 -0.07966473
0.089717485 0.07759708 0.04424591 -0.02225885 0.068380766 0.08153727 -0.01755726 0.062144477
0.063343406 -0.093556546 0.095390655 -0.03365171 0.07742714 -0.051100872 0.085830286 -0.005404326
0.05581015 0.073007874 -0.08300352 -0.041611847 -0.000110705056 0.039654575 0.0037948354 -0.014243496
0.08658662 -0.039865345 0.065822735 -0.019257344 0.042859767 -0.073339686 0.0264365 0.0024402102
0.06115915 0.025721317 -0.06497709 -0.016798101 0.007637982 0.00039343367 -0.034894668 0.021256316
0.05511835 0.04579662 0.08096297 0.04461113 0.06337458 0.0862394 0.084684625 -0.023383042
-0.043231636 0.089971446 0.046400707 0.042109694 -0.12582576 -0.057656102 0.0068057706 0.10900654

action_model._discrete_distribution.branches.2.bias f4 [3]
00000000: eec9 db3b b5fb 8f3c b123 06bd
0.0067074215 0.017576078 -0.03274888

action_model._discrete_distribution.branches.2.weight f4 [3, 256]
00000000: 9502 ba3c 2d4b 1e3d c8fe fc3c 6456 8f3c
00000010: 9a89 e23c 5e21 71bc 2892 f63c fdef 1fba
00000020: 7798 3639 4c46 ae3c 9eca d43c 7a32 083c
00000030: 525e b83c d14e d8bb cb3e f13c 96fb 533b
00000040: d91b 573c 9cc6 4fbc e14f 783c 8f0c 463b
00000050: 3c6a 2c3d b26b 283c 708a 153d 5ef1 cd3c
00000060: 5c16 1a3c ffa3 08bc 542c 18bc 80a9 babc
00000070: 1ef3 56bc 8f1e 3b3c 4b77 0c3d 990f 27bc
00000080: d77e d03c 4b60 bf3c 8a16 de3c c987 7cbc
00000090: bfb4 093c 9750 323d ec5f b8ba c7fd a2bc
000000a0: 3bff 8c3b 635e 343d 89da 193c ffda 853c
000000b0: 220c 793c 0841 023c 6953 933c e932 bf39
000000c0: c791 dfbb 278b ccbb f10b 103d 2274 6cbc
000000d0: aae5 563c aab9 8ebc a645 72bb eee0 203c
000000e0: 1383 c73b b829 883b b31f d0bc 8b3a 923c
000000f0: 5241 20bc 0712 37bc 8932 973c 2ef1 063b
00000100: f023 2d3c 6e7f 8f3c 462b 7b3c 3cce b2ba
00000110: 7d7a 93bc b2b8 1b3c 85a9 333c 1119 49bc
00000120: 325b 403b b1b5 183c 0b44 05bb fcbd b83c
00000130: 932d 7e3c 850d 293d bfa3 283c 12ed 893b
00000140: 7b98 b13b a7f5 9fbc 4818 933c 8855 d73c
00000150: 30aa 2dbb 05d7 79bc 116e aa3c ff68 8b3b
00000160: c033 0c3a e44e 8e3c 4910 363c ac71 963c
00000170: 762e 1dbb 2fdb e33c 3ee5 103c 6721 c33b
00000180: 0086 e03c 3c36 1f3c d0e8 b93a 9e0b c83b
00000190: cd24 e03b e740 9bbc e067 733d 75a6 393c
000001a0: 9ed9 0abd 8c3f ea3a a9a6 c73c fcc5 e83c
000001b0: a42d 87bb ab0e 1a3b a2c2 033d 5f99 cf3b
000001c0: 8b2e b03c ec37 983c 9576 8f3a 7502 96bc
000001d0: 9977 3cbb f726 8c3c 8df7 eebb 5f4e d43b
000001e0: 3d63 273c 6e7c b73c f185 de3c 2d02 a2bb
000001f0: b66c 79bc 0992 7fbc 5409 51bb 9016 373c
00000200: ffa0 6ebc a638 3cbc 538c ae3a 3989 7b3b
00000210: eece ecba a143 483d 9539 033d 9883 bc3c
00000220: 8169 aa3c 535f 1d3c 64a4 cfbc 8886 183c
00000230: ceb6 0d3d 0ddc 4c3c ef03 3bbc 41ff 0f3c
00000240: b181 fc3b 954f ee3c 66aa 113d 53cf 653c
00000250: 879f 1f3c b9c6 f4ba e06e 58bb 89a2 2abc
00000260: f839 55b8 abb5 11bc 5951 083b dcc2 31bb
00000270: 5b0b 14bc 84a8 723c 4c29 c03b bd4c aabc
00000280: 8d79 b1bb 9e18 1e3c 4939 223a 0a2c 003d
00000290: c4b3 d33b debf 24bc 7b91 af3c 3b42 c7bc
000002a0: 30c5 6f3c 4be3 adbc 0567 ab3c 1286 8b3b
000002b0: 6a65 e63c 25bb fb3b 6a30 95bb 9b25 2b3c
000002c0: 33c9 043c e215 4abc e900 f43c 994d 97bb
000002d0: 0fad 093d 1649 b83c 786d 21bd bfd0 d23c
000002e0: 0ec3 8e3a 80bf a73b 103c 073c 5015 d73c
000002f0: 58c2 5d3c eafb b9bc ef5a d83b b763 22bc
00000300: f98b 33bb 0fe8 e83c 7fdd 60bb 362f c8bc
00000310: e58c 22bc 0abd a2bb a8a7 e43b 6cc1 2a3c
00000320: 7d47 873c 7a3a f63c 347e f33c 524f d1bb
00000330: e080 c6bb 48e2 8c3c 8219 05bc 535d e9bc
00000340: 1bb3 87bc fdcf 91bc 6ab7 fab9 2967 ff3b
00000350: 796f 6abc ce52 803a 260e a3bc 83fb e43c
00000360: 4fe7 153d bfc8 4f3c 0f6c 553a 4b85 a13c
00000370: 1580 d4bc e586 703c e9ed c43a bd0c 7f3c
00000380: 3a9f 683a fde8 193c 5fbe f7bb 313c 5d3c
00000390: 9a5d 743c c3fd 70bc 0329 dbbc a85b 023d
000003a0: 37b2 8d3c 9134 b3bc 8604 303c fbec 333c
000003b0: cccb 6b3c d656 153d 8276 c53c 3355 b53c
000003c0: 653b 913b e2f8 ec3c fc5a d6b9 8f54 0dbc
000003d0: b1fd 823a 77e9 88ba 1184 e93b ea4d 0f3d
000003e0: f1a9 8c3c 4682 28bb fb12 42bc 561a 2b3c
000003f0: ba06 febc 9118 173c 78f8 33ba c074 f13b
0.02270631 0.038645912 0.030883208 0.017497249 0.027653504 -0.014717428 0.03009899 -0.00061011297
0.0001741367 0.021273755 0.025975522 0.008312816 0.022505913 -0.0066011925 0.029448887 0.0032346002
0.013129198 -0.0126816295 0.015155763 0.0030219888 0.0420935 0.010279583 0.036508977 0.025139507
0.009404745 -0.008339881 -0.009287912 -0.022785902 -0.013119487 0.01142086 0.034293454 -0.01019659
0.025451107 0.023361346 0.027110357 -0.015413233 0.00840491 0.043533888 -0.0014066673 -0.019896401
0.004302887 0.044035327 0.009390482 0.016339777 0.015200647 0.007950075 0.017984109 0.0003646829
-0.006822798 -0.006242174 0.03516764 -0.014431985 0.01311628 -0.017422516 -0.0036967783 0.009819252
0.0060886233 0.004155364 -0.02540574 0.017850181 -0.009781199 -0.011173732 0.018456714 0.0020590532
0.01056765 0.017516818 0.015330141 -0.0013641785 -0.018002743 0.009504484 0.01096571 -0.012274043
0.0029351232 0.009320662 -0.0020334746 0.02255153 0.015513795 0.04127266 0.010292946 0.004209169
0.0054197884 -0.019526316 0.017955914 0.026285902 -0.0026499145 -0.015249019 0.020804437 0.00425446
0.00053482875 0.017371602 0.011112281 0.01836475 -0.0023983992 0.027814476 0.008843718 0.0059549096
0.027407646 0.00971752 0.0014183763 0.0061049005 0.0068403245 -0.018951846 0.059425235 0.01133119
-0.033898942 0.0017871722 0.024371462 0.028414719 -0.004125314 0.0023507278 0.03216804 0.006335422
0.021506568 0.018581353 0.0010945374 -0.018311718 -0.002875781 0.017108424 -0.007292694 0.006479069
0.010216531 0.0223982 0.027163478 -0.004944107 -0.015223673 -0.015598782 -0.003189643 0.011174813
-0.014564752 -0.011488115 0.0013316966 0.0038381352 -0.0018067041 0.04889262 0.032037336 0.023011968
0.020802261 0.009605247 -0.025346942 0.0093094185 0.034598164 0.012503636 -0.011414512 0.008788885
0.00770589 0.029090682 0.035562895 0.014026481 0.009742624 -0.0018674947 -0.003302507 -0.010414728
-5.0837145e-05 -0.008893411 0.002080044 -0.0027124202 -0.0090359105 0.014810685 0.005864298 -0.020788545
-0.0054161013 0.009649424 0.0006188346 0.031292 0.0064606387 -0.01005551 0.021431675 -0.024323573
0.0146344155 -0.021226546 0.020923147 0.004257926 0.02812453 0.0076822215 -0.0045528905 0.010445978
0.00810461 -0.012334319 0.02978559 -0.0046174047 0.033612307 0.022495788 -0.03941104 0.025734304
0.0010891871 0.005119264 0.008254066 0.02625528 0.013535105 -0.02270313 0.006602637 -0.009911469
-0.0027396663 0.028430967 -0.003431171 -0.024436574 -0.009921287 -0.004966383 0.006977994 0.010422092
0.01651358 0.03005718 0.029723264 -0.0063876295 -0.0060578436 0.017197743 -0.008123757 -0.028486883
-0.016564896 -0.017799372 -0.0004782037 0.00779428 -0.014308804 0.0009790303 -0.019904207 0.027951961
0.036597546 0.012682139 0.0008141407 0.01971688 -0.02593998 0.014680599 0.0015024516 0.015567002
0.0008873824 0.009393928 -0.007560536 0.01350312 0.0149148945 -0.014708939 -0.026752954 0.03182569
0.017296894 -0.021875652 0.010743266 0.0109817935 0.014391851 0.036459766 0.02410436 0.022135353
0.004432129 0.02892727 -0.0004088505 -0.008626117 0.0009993819 -0.0010445555 0.0071263392 0.034986414
0.017170878 -0.0025712415 -0.011845346 0.010443291 -0.031009067 0.009222166 -0.0006865333 0.007368654

discrete_action_output_shape f4 [1, 3]
00000000: 0000 4040 0000 0040 0000 4040
3.0 2.0 3.0

network_body._body_endoder.seq_layers.0.bias f4 [256]
00000000: f94e eb3b 3d8c 753c c126 fbbb eb09 953c
00000010: 2c6f 4f3c fba1 993c 8ed2 753b d9fd 653c
00000020: e727 ba3a 129b 933c 5811 eb3b 900f bc3b
00000030: dc02 833c f904 0ebc caeb 7dbc 1c1c 36bc
00000040: 9cf0 6d3b 1f03 593c d5e9 c03c ccd5 2a3c
00000050: b101 753c 513f c13b 0855 603c 7b99 fa3c
00000060: b139 8a3c 904c b23b 2a2f 3b3c 8c0a c73b
00000070: 0401 ce3a 08cf afbc b739 093c 58fd 03bc
00000080: aaea 573b f7b1 bb3a 4018 803b b0eb ccbb
00000090: c946 693c c558 14bb 51cf e73b 6720 833a
000000a0: ce12 2cbb c94d 303c f18b e83c 274d b13c
000000b0: 4fcc 6ebb 2253 a4ba 760c 873c c2bb 1b3c
000000c0: 9499 193c be23 1a3c d6b9 263c 8247 033a
000000d0: 3859 ca3c ec4e 053c e1f0 773b 73c8 9b3c
000000e0: 7968 a7bb 8d60 913d 3bf7 f6bc 7384 a1ba
000000f0: 32cc 843c c74a 8b3c 747b 3e3c 6b16 273c
00000100: 273f 4f3d f358 9a3c 411c 693c 818e 773c
00000110: a7bd 543c 52ff 7f3b 00d2 2b3c 4691 eb3b
00000120: 2125 9fbc e755 4c3c 2f21 fb3b 3cf2 263d
00000130: 69d9 923d b89d e03b f5c4 b63c 4a77 8f3c
00000140: 43c3 0f3d a52a 07bc 0aa5 2a3c f345 073b
00000150: 6ad0 babb c229 6ebb 2f54 4d3c aaa2 303c
00000160: 5716 873d 31c8 e5bb cf66 0d3b 638b 363c
00000170: 73e3 15bd 7d9e 373c 3be0 8dbb d829 243d
00000180: 6b1b 9a3c 0f4f 003c bd3d 123b 8248 7cba
00000190: abbd a73b 76f9 aebc 0a8f 3c3c 4272 ce3b
000001a0: afba b13b 2b6f dc3c 6b04 593b e572 933c
000001b0: 603f e73a 7d96 8c3c 0689 df3b 529f 5b3c
000001c0: e826 c5bb 7199 013c d1d8 923b a98b bc3b
000001d0: ef42 193c 24be ad3c 43e9 2eb8 a750 c53c
000001e0: bb19 6a3c b758 81bc 62ff 00bc ce4a 273c
000001f0: 2ac8 9f3c dd70 073c 8879 1ebd 9fc4 4e3c
00000200: fa03 04bc cf96 553b f427 083c cbdc 1f3b
00000210: d067 b13a 1130 843c 3c56 183b a958 733c
00000220: bfbb e53c 74b7 2d3c 55fa 043c dcb0 cf3a
00000230: 4410 ec3b 2608 bc3c eab0 04bc 9955 753d
00000240: 4a21 393c 8c8c 953c 0611 aa3c 7170 bd3c
00000250: fe96 bc3c 993e e6bb da09 5a3c b9a3 1dbd
00000260: 51eb f13a fc88 2e3c e520 793c 7cb5 80bb
00000270: 0f6d e9bc bdcc 513b 35cf a2bb 2c13 893b
00000280: fb72 32bc 6eee f7ba 2602 5bbb 86f5 783b
00000290: ff2a 483d a8f7 803c bcf7 033d 94d2 443c
000002a0: 131e 1a3c 2716 813c 5f32 103c e428 6ebc
000002b0: f83a 6b3c 4b1f ea3c 22b6 153c cb01 873d
000002c0: b969 d53c aa4e 753b 1f09 053b ca42 a03b
000002d0: 953e 7e3c c80b e83c f487 2d3b d36d 8b3c
000002e0: 0fd7 673c 7061 653c 4d0c 563b 61f2 7a3c
000002f0: 452a ddbb 5b24 753c bd89 53bb d437 ebbc
00000300: 41cb 79bb f005 a53b d43c 1f3c 0f98 aaba
00000310: c9f7 883b 7f3f 0b3c a9c6 813c 5abe cfbb
00000320: 3570 743d 2057 0b3d 81da 8d3c 7745 a83b
00000330: 027d 833c ae11 4c3c 4753 0cbb afd6 693c
00000340: 0041 253c 72c7 4c3c 2538 b33c 34d8 0d3c
00000350: eef4 533c 3133 0a3c ef5a 65bb b453 ed3a
00000360: 1a56 a53c 1ccc 373c c3f5 00bc 8c92 393b
00000370: b717 2c3c de03 bb3c 9042 9dbb 3175 633c
00000380: 1b91 313c 6754 1a3c 0c25 6b3c 0e1e 61bc
00000390: 8000 393b 0281 853b 8e5a 273c d2c2 5a3c
000003a0: 68a0 ed3c be06 573c 1de0 9b3b 8a22 ca3c
000003b0: 9f4c 0fbb 657d c03b 1191 063c 6c36 c03c
000003c0: 2013 5d3c c13f ff3c df58 f63a 8b15 703c
000003d0: c0d2 8d3b b542 733d 0d49 603c f8e6 883b
000003e0: dbb7 cfba 5978 f13b 6f4b 533c 8b1e c13a
000003f0: 1b66 e13b a7be fe3b 5deb d53a 8012 063c
0.007181045 0.014987049 -0.007664532 0.018193206 0.012660783 0.018753996 0.0037509534 0.014037573
0.0014202566 0.01801828 0.0071736984 0.00573916 0.015992574 -0.008668178 -0.015498111 -0.0111151
0.0036306744 0.013245373 0.023549 0.01042695 0.014954017 0.0058974405 0.013692148 0.030590763
0.016873213 0.005441256 0.011424819 0.0060742553 0.0015716855 -0.021461025 0.008375577 -0.008056007
0.0032946267 0.0014320005 0.003909141 -0.006253682 0.014238068 -0.0022635919 0.0070742746 0.0010004163
-0.0026256326 0.010760733 0.028387042 0.021643234 -0.0036437695 -0.0012536983 0.016485434 0.009505214
0.009374995 0.009407936 0.010176143 0.0005007909 0.024700746 0.008136492 0.0037832784 0.01901648
-0.0051088897 0.07098494 -0.030147186 -0.0012322798 0.01621065 0.01700343 0.011626113 0.010198216
0.050597336 0.018841242 0.014227928 0.015109659 0.01298467 0.0039062095 0.01048708 0.007188949
-0.019426884 0.012471653 0.007663868 0.040758356 0.07170374 0.006854739 0.022310713 0.017512936
0.035098325 -0.008249913 0.010415325 0.0020641058 -0.0057011144 -0.0036340808 0.012532278 0.01078097
0.06596058 -0.00701239 0.0021576171 0.011141631 -0.036593866 0.01120722 -0.004329709 0.040078968
0.018811902 0.007831349 0.002231463 -0.00096238416 0.0051190457 -0.021359187 0.011508713 0.0063002417
0.0054238657 0.026908478 0.0033114206 0.017999122 0.0017642789 0.017161602 0.0068217544 0.013404684
-0.006016601 0.007910118 0.004481413 0.0057539535 0.009354337 0.02120883 -4.1702075e-05 0.02408631
0.014288361 -0.015789373 -0.007873388 0.010210706 0.019504625 0.008266655 -0.03869012 0.01262012
-0.008057589 0.003259111 0.008310307 0.0024393077 0.0013534967 0.016136201 0.002324476 0.014852681
0.028043626 0.010602821 0.008116324 0.0015845555 0.0072040875 0.022953104 -0.00809882 0.059896085
0.011299441 0.018255495 0.02076007 0.023124905 0.023021217 -0.007026505 0.013308013 -0.038486216
0.001845697 0.010652777 0.015205597 -0.0039278846 -0.028494386 0.0032012903 -0.0049685487 0.0041831937
-0.010891671 -0.0018915662 -0.0033418029 0.003798814 0.04886913 0.015743092 0.03221868 0.012013096
0.009406584 0.015757633 0.008801072 -0.014536116 0.014357321 0.028579375 0.009137662 0.06592139
0.026051389 0.003743092 0.0020299626 0.0048907744 0.01551785 0.02832593 0.002647874 0.017020142
0.014150395 0.014000282 0.003266114 0.015316577 -0.0067494237 0.014962281 -0.0032278143 -0.028713144
-0.0038115534 0.005036108 0.009719092 -0.0013015288 0.004179929 0.008499025 0.015841799 -0.0063398303
0.05967732 0.034018636 0.017316105 0.005135234 0.01605082 0.012455387 -0.0021411942 0.014272376
0.010086298 0.012498723 0.021877358 0.008657504 0.012936814 0.008435057 -0.0034996828 0.001810661
0.020182658 0.011218097 -0.007871094 0.0028316109 0.010503701 0.022828992 -0.0047991946 0.013882921
0.0108378185 0.009419537 0.014352094 -0.013740076 0.0028229058 0.004074217 0.010214461 0.013352113
0.029007152 0.013124166 0.004756941 0.024674673 -0.0021865738 0.005874323 0.008213297 0.02346345
0.013493329 0.03115833 0.0018794796 0.014653574 0.004328102 0.05938979 0.013689292 0.0041779242
-0.001584764 0.007369083 0.012896403 0.0014733834 0.006878627 0.0077741924 0.0016320754 0.008183122

network_body._body_endoder.seq_layers.0.weight f4 [256, 164]
00000000: 768e 6c3b 2a34 e6bd 41c0 21bb 9334 d63d
00000010: 34d8 103d 1291 b63d 4482 e93d 8e9d 983c
00000020: 0eff 3dbe 3950 19be 6b57 ffbd 5a8d c3bc
00000030: 5de6 9abd 0517 78be 692a 083c 802f 1bbd
00000040: c82c 84bd 6322 5bbd 4c5e 6c3d 6467 ae3d
00000050: 789b d83c 6ef4 85bd e6bb d13c 1cd0 1e3e
00000060: 1c1e babc 9b96 073d f248 b63d 1b81 fabb
00000070: 3634 55bd ca70 d73c ae2f cb3a 49e4 c03d
00000080: 4b24 8cbd 932a f33d 5ac1 a8bd 1bf4 f1bc
00000090: 9ef6 b0bc ee09 ddbc efd5 e83d 1571 9c3d
000000a0: 1f5d 5fbd dc3e 48bd 9cf8 5b3d ad96 8b3d
000000b0: 0b23 cd3b f4e3 223d b0cf 413d 045e acbd
000000c0: 0957 3d3e 463b d2bc 08a5 5abb 8669 2b3d
000000d0: b485 23bd bb92 14bc e01a 20bd 9ae9 d9bd
000000e0: c4ab d3bd a174 dd3d 9407 5a3d 0129 19bc
000000f0: 73bb 003e 8490 28bc b9e9 a5bd a0f2 25bb
00000100: 244a c83d 1c6f 17be e564 ce3d 2096 0ebe
00000110: ff25 173e 6e39 b63d 4d0e 11bd ca0d 47bd
00000120: 7e75 ab3d 4e60 01be 934a aabd 6ca8 163d
00000130: 8365 0abe 3abb 40bc 3f38 e63c b6d4 083e
00000140: 6593 7e3d 30fa 0bbe eb74 e6bd f90b eb3d
00000150: 7fe3 20bc 4312 f33d 5721 9ebd ee90 88bc
00000160: e4ed 78bc e904 d2bc 446e 5abd 0981 32be
00000170: 8273 153e c567 39bd 97d6 903d adc4 8dbd
00000180: c8eb f23c 75ba 97bd 8579 a8bb e2d6 033d
00000190: 34f9 a2bc f053 adbd 3bdb 3d3d 6df0 55bd
000001a0: e30a 283e edee ec3d b1ca 313c 4c35 143c
000001b0: ae07 f53d a808 14bd 1508 d03c 1ac0 48be
000001c0: 2be2 3b3e 9865 19be 4de5 b6bc 6888 0cbe
000001d0: c130 663e e547 9a3c aa95 c9bd a492 9d3d
000001e0: 7467 403e 0ea3 c03d 8b30 f9bc f8df 4bbd
000001f0: e426 343d ffb3 623d 990a 8b3c c089 b0bd
00000200: 4b31 303e 5599 98bd 62c0 0fbb bb57 57bc
00000210: 31c4 8dbc a589 15bd ba29 ffbd 6997 b63d
00000220: 69cd 393e e8b4 7abc b786 0e3d b507 8cbd
00000230: a212 9a3d 2210 2a3d dc13 2bbe c905 443d
00000240: e68b 313e 5345 393d 4421 fabd 7f62 393d
00000250: 98eb e03d a8a6 6bbd 91c9 e93d 4999 883d
00000260: 4ceb e83d 295a c3bc 9297 fbbc 23b2 2ebd
00000270: 1b30 52bd d411 3a3d 14a9 3dbd db87 2c3e
00000280: 771b 2a3e c9d8 9db9 c5c8 3b3d d81a 67bd
00000290: a8db e93d a05a cbbd 2257 b6bb f33d 153c
000002a0: 567d 263e 0fc5 f7bd 8d6b c2bd 1f46 d1bd
000002b0: 7236 533d bbcd b4bd 227d 60bd 932d c23d
000002c0: f72d c03d 02b5 ceb9 aefb c6bd c253 adbd
000002d0: d1a7 3c3d 20aa ccbc 2fdd 283d e944 a83c
000002e0: 9e36 ea3d bf1e a0bd bc5c 313d c1e4 193d
000002f0: ea39 debc 445a 5fbc 2944 e73d 7381 5f3d
00000300: b576 133e 925d 79bd 4f1c 64bd 1f05 a43d
00000310: 7d72 4fbb db43 243e 861d 003e ef36 993c
00000320: cb04 d33d e838 d1bd 3682 87bd bd22 3bbd
00000330: 47f8 31bd 4b2e cd3d 0e22 563d 1999 42bd
00000340: d6f6 063e a2bb 9ebc 2b8b 763a ea9d ba3d
00000350: 502c d73d d7ea 233e e8dd 773c 7083 593b
00000360: c970 0d3d fdef 753d 6e19 17be 2f87 4b3d
00000370: f0a6 b63d f7f7 f4ba 4118 f3bd 6d16 823d
00000380: d483 3c3e d8f5 24bd 1d3f 45bd e9d2 d5bd
00000390: e567 563c 7232 bc3d 28a4 4bbc 3e79 08be
000003a0: bc26 c5bb 451c 84bc 5e79 933c 5817 f63d
000003b0: 6ff9 b83d 9654 393e 8c4f 02bd e804 81bd
000003c0: 5c80 443d e75d 903d da81 c13c b20e 4abd
000003d0: 617c 923e eb90 c4bd e00b 09be a9af 943d
000003e0: 8377 da3d be2c 98bd 34e4 aebb ce1a 04bd
000003f0: 5fed a73d 593e ddbd 5bc2 963c bba7 013d
0.0036095656 -0.11240418 -0.0024681243 0.104592465 0.035362437 0.08914389 0.11401799 0.018629815
-0.18554327 -0.14972009 -0.124678455 -0.023871113 -0.075634696 -0.24227531 0.008310893 -0.037887096
-0.06453854 -0.05349959 0.057707116 0.08515814 0.02644132 -0.06540762 0.025602292 0.15509075
-0.022719435 0.033102613 0.08900632 -0.007644785 -0.052051745 0.0262989 0.001550188 0.09418542
-0.0684286 0.11873355 -0.08240004 -0.029535344 -0.021601971 -0.026982274 0.113689296 0.07638756
-0.054532167 -0.048888072 0.05370389 0.068158485 0.006260281 0.039768174 0.047317207 -0.084163696
0.18490233 -0.02566303 -0.0033362526 0.041848682 -0.03992243 -0.009068186 -0.03908813 -0.10640259
-0.10335496 0.10813261 0.053229883 -0.009348155 0.12571506 -0.010288361 -0.0810122 -0.0025321618
0.09779766 -0.14788479 0.10077838 -0.13924456 0.14760588 0.088976726 -0.03541403 -0.048597135
0.08372019 -0.12634394 -0.08315005 0.036781713 -0.13515286 -0.011763388 0.028102992 0.13362393
0.062152285 -0.13669658 -0.11252769 0.11476893 -0.009819864 0.118687175 -0.07721203 -0.01667067
-0.015193436 -0.025637107 -0.053327814 -0.17432036 0.14594844 -0.045264978 0.0707218 -0.069222786
0.029653445 -0.07408611 -0.0051414394 0.03218735 -0.01989422 -0.084632754 0.046351653 -0.05223124
0.16410403 0.11569009 0.010851548 0.00904591 0.119643554 -0.036141068 0.025394479 -0.19604531
0.18347995 -0.14980161 -0.022326136 -0.1372391 0.22479536 0.01883311 -0.09842999 0.07693985
0.18789464 0.094061 -0.030418655 -0.04977414 0.0439824 0.05534744 0.016972827 -0.08620024
0.17206304 -0.07451121 -0.0021934737 -0.013143475 -0.017305465 -0.03650822 -0.124591306 0.08915598
0.18144764 -0.0153019205 0.034796443 -0.068374075 0.07523085 0.04151929 -0.16706795 0.04785708
0.17338523 0.04523213 -0.12213376 0.04525995 0.10982436 -0.057531983 0.11415399 0.06669862
0.11373004 -0.023846703 -0.030711923 -0.042650353 -0.05131541 0.04542716 -0.046303824 0.168487
0.1661204 -0.0003010689 0.045845766 -0.056422085 0.11418849 -0.09929395 -0.0055645863 0.009109008
0.1625875 -0.12098133 -0.0949317 -0.10218453 0.051565595 -0.088283025 -0.054806836 0.09481349
0.09383767 -0.00039426243 -0.09715973 -0.08463241 0.04605848 -0.024983466 0.041226562 0.020540671
0.11436199 -0.07818364 0.04330133 0.037571672 -0.027127225 -0.013632361 0.112922974 0.05456681
0.14400752 -0.06088025 -0.05569106 0.08008789 -0.0031653934 0.1604151 0.12511262 0.018702952
0.103036486 -0.10215932 -0.06616633 -0.045687426 -0.043449666 0.10018595 0.05227857 -0.047509287
0.13180098 -0.01937658 0.0009404893 0.09112151 0.10506499 0.16007553 0.01512859 0.0033189915
0.03453139 0.060043324 -0.14755794 0.049689468 0.089185596 -0.0018689622 -0.118698604 0.06351934
0.18409663 -0.040273517 -0.048155893 -0.104406185 0.013086294 0.09189309 -0.012429275 -0.133275
-0.0060165804 -0.016126761 0.018002208 0.12016171 0.09031951 0.18098673 -0.031814143 -0.06299764
0.047973976 0.070491605 0.023621488 -0.04933042 0.2861052 -0.095979534 -0.13383436 0.07260067
0.10667326 -0.07430409 -0.0053372625 -0.032252125 0.08199572 -0.108029075 0.018403223 0.0316541
